tudui_torch_study/17_file/CIFAR10_epoch_9_test_1.2530478671857506.pth (torch, 382535 bytes, 10 tensors)

model.0.0.weight f4 [32, 3, 3, 3]
0.001450143 0.2437735 0.21690387 -0.0063033467 -0.19746146 0.11110147 -0.02001992 -0.12168842
0.1743382 0.06897279 -0.14864297 -0.07720974 -0.14672719 -0.21792889 -0.1282824 0.031009905
-0.05895783 -0.0030068525 0.08918686 -0.1581037 -0.0046576452 -0.17917815 0.06219197 -0.16853149
-0.09639487 0.045030482 0.13991451 -0.11946479 -0.2508675 -0.3479434 -0.091552235 -0.058637768
-0.22418621 -0.08157017 -0.010090671 -0.14680122 -0.22735618 -0.23819445 -0.19350474 0.05020517
-0.13507146 0.031011652 -0.005582434 0.2595362 0.15568411 0.1367133 -0.070876166 0.059566848
-0.074840285 0.2647522 0.24809495 0.3469113 0.3430422 0.35857272 -0.050122913 0.035837825
-0.13723215 -0.07536083 0.21338777 -0.0884841 0.07859611 0.121960595 0.23003228 -0.018491652
0.024169842 -0.22789288 -0.13534085 0.045722403 -0.14962581 0.08372192 0.05928367 0.1602126
-0.13456595 0.009270139 -0.23715374 0.14313437 0.020255303 0.04902994 0.0018241442 0.24641147
0.048494704 0.14651836 0.023536036 0.08646612 -0.23346603 -0.34636176 -0.31201217 -0.20817944
-0.36287212 -0.27642506 0.25301814 0.1379322 0.0906256 -0.2291939 0.13361071 -0.14729491
-0.15936588 -0.21618813 0.0764 0.28332126 0.36692083 0.3907821 0.12615106 0.03165115
0.08810348 0.040928356 0.111882195 0.08836027 0.16363916 0.052658185 0.07567826 -0.06986389
-0.026504176 -0.10680166 0.009537519 -0.17992339 -0.08781737 0.014721247 -0.08472084 0.16424608
-0.080402456 0.0746783 0.2189276 -0.041818865 0.19388571 -0.06297805 0.03073148 0.056589376
0.03553136 -0.12831138 -0.16987519 -0.012654529 0.15791029 -0.1074458 -0.16168708 -0.09218571
-0.18606369 0.070247956 0.0537356 -0.3025836 0.0899672 -0.21133283 0.0081138415 -0.22411926
0.06803871 0.014830206 0.14851648 -0.12436461 -0.011151835 -0.11899578 -0.043367032 -0.15785526
-0.15329596 -0.06693566 -0.2812741 -0.05919903 -0.083709516 -0.30644536 0.13271706 -0.07215571
-0.3138113 -0.1543169 -0.09193226 0.16152196 -0.106710605 -0.07703419 -0.072376356 -0.12970015
0.23211958 0.13151217 0.068892635 -0.044992857 -0.05007938 0.051261712 0.039388355 0.14822584
0.20263827 0.22101428 0.11487547 -0.08482616 -0.215728 -0.112439185 -0.19504736 0.12098644
-0.017064998 -0.1609673 0.18752883 -0.03715003 -0.1281727 0.113344505 0.07472008 0.19844137
-0.03494487 -0.09663121 -0.065151535 0.11045482 -0.05982726 -0.027670799 0.15846863 0.017005635
0.056348138 -0.16803767 -0.014167274 -0.07275726 0.12731257 0.025789795 -0.22505623 0.1621673
0.117656425 0.12596467 -0.012731782 -0.11770758 0.06256129 0.14842172 0.114474274 -0.21628864
-0.21799259 -0.08086463 -0.19731043 0.0760098 -0.00064074935 0.016665341 0.09568172 0.15180318
-0.15967713 -0.14748624 -0.12180963 -0.059535485 0.20337467 -0.2118122 -0.15343246 0.16159886
0.0023580764 -0.22228749 0.092971504 0.13910682 -0.18879084 0.27725273 0.05027964 0.09923941
0.16654992 0.2113614 -0.058793146 -0.1828139 0.09628748 0.053203106 -0.10408812 0.21146272
0.27721238 0.05298172 0.1395012 0.10800358 -0.20253898 -0.13940567 0.1443564 -0.08589879
00000000: ba12 be3a c39f 793e 0c1c 5e3e 4e8c cebb
00000010: 5633 4abe 2b89 e33d d100 a4bc c737 f9bd
00000020: b785 323e 9b41 8d3d dd35 18be 2420 9ebd
00000030: a73f 16be c028 5fbe 765c 03be 7c08 fe3c
00000040: c47d 71bd 9d0e 45bb 9aa7 b63d f0e5 21be
00000050: 299f 98bb 7a7a 37be 02bd 7e3d 8593 2cbe
00000060: ac6a c5bd e271 383d c045 0f3e f5a9 f4bd
00000070: b471 80be a325 b2be bd7f bbbd 282e 70bd
00000080: 1291 65be 430e a7bd 5753 25bc 0f53 16be
00000090: 0fd0 68be 3fe9 73be 1b26 46be f0a3 4d3d
000000a0: 2c50 0abe 260c fe3c daec b6bb eee1 843e
000000b0: a86b 1f3e 92fe 0b3e 8627 91bd 5efc 733d
000000c0: dd45 99bd 9a8d 873e 9a0c 7e3e 5c9e b13e
000000d0: 3aa3 af3e d896 b73e af4d 4dbd afca 123d
000000e0: 9686 0cbe c756 9abd 5382 5a3e 2737 b5bd
000000f0: fff6 a03d 7ac6 f93d 958d 6b3e ce7b 97bc
00000100: d5ff c53c c05c 69be cb96 0abe 6a47 3b3d
00000110: 8237 19be 6676 ab3d 6fd3 723d c60e 243e
00000120: a8cb 09be c8e1 173c 6ed8 72be d191 123e
00000130: 73ee a53c 9ed3 483d 1f18 ef3a 4a53 7c3e
00000140: 62a2 463d e908 163e a5ce c03c 2615 b13d
00000150: b811 6fbe 5456 b1be 0fc0 9fbe fe2c 55be
00000160: 60ca b9be 9687 8dbe 988b 813e 193e 0d3e
00000170: ea99 b93d ceb1 6abe 3fd1 083e 7ad4 16be
00000180: cf30 23be 6c60 5dbe 9a77 9c3d 7c0f 913e
00000190: 0cdd bb3e 9714 c83e be2d 013e a3a4 013d
000001a0: 996f b43d 7ea4 273d 7e22 e53d 3bf6 b43d
000001b0: 0691 273e 1cb0 573d 34fd 9a3d cd14 8fbd
000001c0: 491f d9bc d4ba dabd 4143 1c3c d63d 38be
000001d0: 98d9 b3bd 6331 713c 1f82 adbd 2030 283e
000001e0: 0baa a4bd f0f0 983d 8f2e 603e 424a 2bbd
000001f0: fa89 463e a3fa 80bd 96c0 fb3c 43ca 673d
00000200: 5589 113d 0f64 03be c3f3 2dbe f154 4fbc
00000210: 3cb3 213e 8b0c dcbd 4c91 25be ddcb bcbd
00000220: 7b87 3ebe 29de 8f3d dc19 5c3d 3dec 9abe
00000230: b940 b83d a267 58be ebef 043c 857f 65be
00000240: e157 8b3d 64fa 723c b414 183e dfb2 febd
00000250: 30b6 36bc 0fb4 f3bd a1a1 31bd cfa4 21be
00000260: 9ef9 1cbe 9015 89bd 2903 90be af7a 72bd
00000270: e56f abbd 68e6 9cbe fbe6 073e 5fc6 93bd
00000280: e0ab a0be 4005 1ebe fb46 bcbd 0366 253e
00000290: 178b dabd 1ac4 9dbd 0e3a 94bd 1ed0 04be
000002a0: c1b0 6d3e 20ab 063e 9517 8d3d 6e4a 38bd
000002b0: 0920 4dbd cdf7 513d af55 213d 84c8 173e
000002c0: 6880 4f3e 9151 623e d543 eb3d 56b9 adbd
000002d0: cde7 5cbe 8446 e6bd 7fba 47be bdc7 f73d
000002e0: e5cb 8bbc 9dd4 24be 8f07 403e a12a 18bd
000002f0: b43f 03be 2a21 e83d d706 993d 3734 4b3e
00000300: 5a22 0fbd 95e6 c5bd 2b6e 85bd 2336 e23d
00000310: 6e0d 75bd dfad e2bc 9a45 223e 674f 8b3c
00000320: 4ecd 663d 1112 2cbe db1d 68bc c201 95bd
00000330: 3a5e 023e 1f45 d33c 2475 66be 2f0f 263e
00000340: daf5 f03d e2fc 003e f798 50bc ac10 f1bd
00000350: 2220 803d ddfb 173e 7d71 ea3d c57a 5dbe
00000360: 7339 5fbe 5b9c a5bd bf0b 4abe 07ab 9b3d
00000370: f6f7 27ba c185 883c c7f4 c33d 4b72 1b3e
00000380: 6782 23be a206 17be 5477 f9bd 7bdb 73bd
00000390: 7341 503e 4ce5 58be 661d 1dbe 2c7a 253e
000003a0: f589 1a3b 559f 63be d867 be3d 0572 0e3e
000003b0: 6352 41be 12f4 8d3e 06f2 4d3d 083e cb3d
000003c0: 108c 2a3e 1f6f 583e 15d1 70bd 9133 3bbe
000003d0: 5f32 c53d 80eb 593d 272c d5bd af89 583e
000003e0: c8ee 8d3e 5c03 593d 67d9 0e3e fb30 dd3d
000003f0: 6166 4fbe 5cc0 0ebe 2ad2 133e b4eb afbd

model.0.0.bias f4 [32]
-0.08208991 0.01089557 -0.2346889 0.057448085 -0.081429765 0.48169506 0.033051964 -0.14780506
0.14330076 -0.31187436 -0.29683834 0.104817554 0.30092406 0.07356926 0.18366168 -0.1129615
-0.005672189 -0.2578903 0.24285576 -0.010033583 -0.040162604 0.061676994 -0.263404 0.09323952
-0.41736454 0.1877442 0.06548732 -0.03230833 0.032227784 -0.054119077 -0.3297742 -0.0074518905
00000000: c11e a8bd 5583 323c 4952 70be af4e 6b3d
00000010: a6c4 a6bd bca0 f63e 7f61 073d 365a 17be
00000020: 6fbd 123e ffad 9fbe 32fb 97be 96aa d63d
00000030: b812 9a3e 7bab 963d cf11 3c3e 5c58 e7bd
00000040: c5dd b9bb 330a 84be 2eaf 783e e663 24bc
00000050: 8b81 24bd 04a1 7c3d e4dc 86be 5df4 be3d
00000060: ceb0 d5be 0440 403e 371e 863d bd55 04bd
00000070: 4801 043d f7ab 5dbd 2ad8 a8be fd2e f4bb

model.1.0.weight f4 [32, 32, 3, 3]
0.057546582 0.07348739 0.045099508 0.06701004 0.020791069 0.07724064 0.023039158 0.07965223
0.013750139 -0.077395305 -0.053285528 0.0051043364 0.0433692 0.032142926 -0.026198745 0.0015668737
0.024337841 0.082189366 -0.022301659 -0.06357753 -0.004776914 0.0066644503 0.024146525 -0.01637095
0.053305097 0.016875807 0.050702512 -0.0019609828 -0.009490437 -0.048662722 -0.018488219 0.003437744
0.060152628 0.015296012 0.0046814745 -0.030252142 -0.014822681 0.007827642 0.036191728 -0.01749485
-0.0035722835 -0.050216634 0.024423724 0.05153596 0.014991742 -0.022920996 0.010823688 -0.037378706
0.10910006 0.094347216 0.119354986 0.02915637 -0.004425175 0.005200953 0.06738388 0.014336094
0.0070542963 0.0017636712 -0.029865736 -0.06230898 0.0139287785 0.02157378 -0.020639956 0.018118095
-0.0065190247 0.039167535 0.06949137 -0.01020939 -0.022573361 -0.01106003 -0.021193383 -0.029600296
-0.018516455 -0.037804402 -0.010810782 0.034709983 0.0036649879 0.0055781114 -0.0049112653 0.007171197
0.042477183 0.04409478 0.02917236 -0.0019965519 0.02309497 -0.031121764 0.03296567 -0.03507899
-0.03550438 -0.035758704 0.048386566 -0.012752193 0.08160665 0.030919954 -0.018214885 0.0698176
0.02526065 -0.01872317 0.031338397 -0.0034196908 0.045515064 0.020401275 0.005721137 0.06973304
0.052547842 -0.012493982 -0.025255779 0.028814716 -0.026728163 -0.01903358 0.04290899 0.120699234
0.09381589 0.059415065 0.092794396 0.10716812 0.095063835 0.04775438 0.014217657 -0.002168696
-0.0024998814 0.10303405 0.072077304 0.004214151 0.049481846 0.07168473 -0.052162055 0.0131985545
-0.03007691 0.025345827 0.024075625 0.022393007 -0.088976845 -0.020685602 0.026910296 0.06151506
0.07472223 0.08891098 0.016446695 0.008350537 -0.02204128 0.06374662 -0.035382293 0.04204291
-0.0142032495 -0.043475833 -0.05689212 0.008653017 -0.037620608 0.04512204 0.061966304 -0.028003337
0.050876133 -0.015088996 0.026262674 -0.053912174 -0.042720594 -0.07823619 -0.012852034 0.00013260987
0.04347574 0.04613944 0.13841319 0.14615184 0.114256114 0.027325965 0.101007916 0.11053373
0.010538373 0.047536958 0.020502962 0.026395436 -0.027902566 0.06663652 -0.03532931 -0.00039412515
0.0736786 -0.029612932 0.030236581 0.0313392 0.000916447 0.0515487 -0.0032884078 0.11425645
0.07526449 0.10450806 0.0724592 0.10258236 0.05991592 0.04239906 0.027152263 0.06512784
0.0018064202 -0.017318074 0.085188456 0.0067806104 -0.009088547 -0.027975462 0.046154853 0.045812003
-0.023151381 -0.0004308846 -0.037037298 -0.005074142 -0.015857197 -0.036933467 0.04198469 0.03416448
0.05650998 0.05670662 -0.0016282261 0.034186516 -0.03910923 -0.0041174553 -0.00079178566 -0.09208107
0.047673315 -0.03835428 0.020333631 -0.06948809 -0.0602062 -0.06954965 -0.049039386 -0.020215051
-0.0011678919 -0.02542111 -0.037406147 -0.029431956 0.0030715023 -0.008566009 -0.037764914 0.021985201
-0.07114105 -0.06306933 0.007817618 0.04660004 0.01690535 0.06563383 -0.031186499 0.03865592
0.026602484 0.016032264 0.003070374 0.07117039 0.13457286 0.07779078 0.07401009 0.02731174
0.06840083 0.022255303 0.0458683 0.06753023 0.0059324424 0.011518108 -0.0019305431 0.07133862
00000000: f7b5 6b3d 8f80 963d 43ba 383d 8f3c 893d
00000010: 0852 aa3c 5730 9e3d 9ebc bc3c b520 a33d
00000020: 4348 613c 6e81 9ebd ed41 5abd 4742 a73b
00000030: e7a3 313d 4da8 033d c09e d6bc 8f5f cd3a
00000040: 2760 c73c e652 a83d f8b1 b6bc f034 82bd
00000050: a987 9cbb 7661 da3b efce c53c 5f1c 86bc
00000060: 7256 5a3d 223f 8a3c 70ad 4f3d d583 00bb
00000070: c77d 1bbc 9052 47bd 9b74 97bc c64b 613b
00000080: 9a62 763d 209c 7a3c 0e67 993b 57d3 f7bc
00000090: d5da 72bc 833f 003c c73d 143d 5c51 8fbc
000000a0: f91c 6abb f5af 4dbd 4314 c83c 5f17 533d
000000b0: ec9f 753c d0c4 bbbc d655 313c 6a1a 19bd
000000c0: da6f df3d 1d39 c13d 6370 f43d 57d9 ee3c
000000d0: 0f01 91bb c26c aa3b 8f00 8a3d f0e1 6a3c
000000e0: ba27 e73b fc2a e73a fda8 f4bc b337 7fbd
000000f0: 8835 643c 7fbb b03c 2015 a9bc 666c 943c
00000100: 8b9d d5bb 236e 203d 7e51 8e3d 4945 27bc
00000110: c5eb b8bc 2135 35bc bf9d adbc 527c f2bc
00000120: d2af 97bc cad8 1abd b51f 31bc 0e2c 0e3d
00000130: 4b30 703b 97c8 b63b aeee a0bb 5cfc ea3b
00000140: 8efc 2d3d ba9c 343d e0fa ee3c 95d8 02bb
00000150: aa31 bd3c 12f3 febc 0307 073d fdae 0fbd
00000160: 0a6d 11bd b877 12bd fe30 463d 93ee 50bc
00000170: 6321 a73d d84b fd3c 6237 95bc 88fc 8e3d
00000180: 6cef ce3c 5561 99bc b15c 003d e41c 60bb
00000190: 016e 3a3d 9320 a73c 6078 bb3b 32d0 8e3d
000001a0: 683c 573d 8fb3 4cbc 35e5 cebc d70c ec3c
000001b0: 05f5 dabc 4fec 9bbc 56c1 2f3d 2931 f73d
000001c0: 8c22 c03d 365d 733d fd0a be3d f67a db3d
000001d0: d4b0 c23d 199a 433d 2df1 683c ae20 0ebb
000001e0: 0dd5 23bb 8403 d33d 449d 933d dc16 8a3b
000001f0: 7aad 4a3d 72cf 923d e1a7 55bd c03e 583c
00000200: da63 f6bc 0da2 cf3c 3f3a c53c 8a71 b73c
00000210: 7e39 b6bd da74 a9bc fb72 dc3c 37f7 7b3d
00000220: f807 993d f616 b63d 38bb 863c b1d0 083c
00000230: ea8f b4bc 978d 823d 06ed 10bd 3035 2c3d
00000240: bfb4 68bc b713 32bd b607 69bd 62c5 0d3c
00000250: 1118 1abd e3d1 383d 61d0 7d3d 4167 e5bc
00000260: 7e63 503d d637 77bc d224 d73c 03d3 5cbd
00000270: cafb 2ebd 4c3a a0bd 5691 52bc 310d 0b39
00000280: 9e13 323d b6fc 3c3d 30bc 0d3e d4a8 153e
00000290: 1cff e93d b4da df3c 3ddd ce3d 825f e23d
000002a0: 24a9 2c3c 1db6 423d d4f5 a73c 3e3b d83c
000002b0: ec93 e4bc ba78 883d 77b5 10bd 95a2 ceb9
000002c0: cee4 963d d296 f2bc b5b2 f73c 885d 003d
000002d0: b83d 703a bb24 533d 5482 57bb 49ff e93d
000002e0: 4524 9a3d 5208 d63d 7d65 943d b316 d23d
000002f0: 656a 753d a3aa 2d3d 6c6e de3c bf61 853d
00000300: 67c5 ec3a a2de 8dbc 4977 ae3d e22f de3b
00000310: 21e8 14bc cc2c e5bc df0c 3d3d 5ea5 3b3d
00000320: f7a7 bdbc 5ae8 e1b9 6cb4 17bd fd44 a6bb
00000330: f4e6 81bc 8c47 17bd 23f8 2b3d 0ef0 0b3d
00000340: 0277 673d 3345 683d 346a d5ba 2907 0c3d
00000350: 0031 20bd b8eb 86bb d68f 4fba 0095 bcbd
00000360: 1845 433d 6119 1dbd b792 a63c c64f 8ebd
00000370: c79a 76bd 0c70 8ebd 86dd 48bd 099a a5bc
00000380: f313 99ba ef3f d0bc 3037 19bd 491b f1bc
00000390: 424b 493b 7258 0cbc 62af 1abd 4f1a b43c
000003a0: 66b2 91bd 7e2a 81bd 7715 003c afdf 3e3d
000003b0: 177d 8a3c 086b 863d d47a ffbc ac55 1e3d
000003c0: 74ed d93c 1856 833c 5438 493b c8c1 913d
000003d0: 78cd 093e c650 9f3d 9a92 973d dfbc df3c
000003e0: bc15 8c3d c150 b63c 66e0 3b3d 4a4d 8a3d
000003f0: ef64 c23b 72b6 3c3c 470a fdba fb19 923d

model.1.0.bias f4 [32]
-0.011886824 -0.0588065 -0.025964405 0.016284714 0.01662926 0.029812016 0.107339695 0.107169434
-0.0034359142 0.029858075 -0.094242446 -0.13958721 0.10108715 0.058903143 -0.019533465 -0.074297465
-0.020778885 -0.03925956 0.09258616 -0.03165432 0.02259831 -0.004531632 -0.00509161 -0.049403198
-0.056693655 -0.062059034 0.05723977 -0.07928154 0.044971757 0.12945454 -0.11715572 -0.06097034
00000000: f4c0 42bc 16df 70bd 4eb3 d4bc 8567 853c
00000010: 163a 883c 5438 f43c ead4 db3d a67b db3d
00000020: 132d 61bb ec98 f43c 2f02 c1bd f3ef 0ebe
00000030: c806 cf3d 6c44 713d a504 a0bc 4529 98bd
00000040: 7b38 aabc a2ce 20bd d09d bd3d f6a7 01bd
00000050: 1720 b93c 167e 94bb 85d7 a6bb 025b 4abd
00000060: 9b37 68bd 9d31 7ebd 4074 6a3d 5c5e a2bd
00000070: 4e34 383d bb8f 043e 57ef efbd 09bc 79bd

model.2.0.weight f4 [64, 32, 3, 3]
0.014382113 -0.01124467 -0.0057319724 -0.059442904 -0.023284156 -0.019596124 -0.0016203434 -0.087257326
-0.05827108 -0.030379562 0.014467079 0.0060982457 0.04466504 -0.054194447 -0.020197686 -0.019218413
0.0033890277 0.005224726 -0.06845526 -0.031835396 -0.017038966 0.011716739 -0.07434366 -0.013650684
-0.027570166 -0.0075419554 0.051154353 -0.040336028 0.036605846 0.029215166 0.046042044 -0.02031576
0.0026123796 0.01200098 -0.017711464 0.015139869 0.030290447 -0.02871109 0.024844816 -0.025371024
-0.032490164 0.014459895 -0.04398845 0.04633127 0.0014861802 -0.075479805 0.025308669 0.04596885
0.005659428 0.0012758175 0.028153826 0.018576033 0.017842503 -0.038934447 0.019219616 -0.07269701
0.007820049 0.006776417 -0.121631645 -0.09113808 -0.059459228 -0.08450971 -0.054894287 0.014002207
0.01585579 -0.0126578305 -0.09201275 -0.023454215 -0.011154074 -0.054919094 -0.070581175 -0.028945077
0.008362611 0.013661953 -0.07268001 -0.07235441 -0.012416671 0.011120949 -0.06837835 -0.004523545
-0.026865823 -0.042532735 0.026186101 -0.0532989 -0.099682055 -0.06709514 -0.004181769 0.0027931146
-0.12687309 -0.0295269 -0.011116767 -0.034023553 -0.019130472 -0.032835837 -0.024533974 0.036448784
-0.0055621667 -0.039626516 0.06552444 0.023234207 0.008625982 -0.053109717 -0.04279993 -0.0046989727
-0.0560229 0.033376895 -0.041569185 -0.08571413 0.06488654 0.03305168 -0.058562543 -0.018918129
-0.0029614095 0.018358076 0.019770075 -0.032000188 -0.08385166 -0.01739701 0.023994792 -0.022675764
0.0011384251 0.0354405 0.020559251 0.0088748 -0.056727696 -0.008055943 -0.03079931 -0.0034946005
-0.05780509 0.013182982 -0.021674005 -0.048689652 0.038262654 0.015108725 -0.048180144 -0.06553328
0.028538562 -0.057643842 0.019952465 -0.08603208 0.017666733 0.00392756 -0.08216731 -0.04384589
0.044430137 0.030287324 0.037283998 -0.02928533 -0.04292544 0.042317796 -0.002714905 -0.049136717
0.028373921 -0.059700023 -0.0142865935 0.012463678 -0.046121582 -0.05213287 0.010306422 -0.06491846
-0.06925409 0.0048671407 0.035588827 -0.05175302 -0.012312988 -0.09315184 -0.10801008 0.023683352
0.014614244 -0.077636994 -0.055107996 -0.06808474 -0.08375982 -0.013933831 -0.02974737 -0.07140095
-0.04855107 -0.044499405 -0.064589165 -0.032522473 -0.049035136 -0.03440071 -0.021105556 -0.015901696
0.014308929 -0.0769583 -0.02099899 -0.05107724 -0.0671577 0.032312326 -0.041756343 0.018234953
0.0138049945 -0.011271569 -0.0702654 0.04563949 0.039605804 -0.051392917 -0.060662113 0.011665031
0.02005136 -0.013681626 0.030803341 -0.047586527 0.011143521 -0.009463362 -0.02111808 -0.03908675
-0.008266221 0.017548764 -0.020014422 0.009763276 -0.023147944 -0.02624289 0.049514804 -0.048064414
0.010069731 0.031338453 -0.0013460969 0.05121921 -0.056822542 0.00024353016 0.035911206 0.0359985
-0.01560003 -0.06344761 0.037140075 0.0063721472 -0.08098324 -0.084118284 -0.08168368 -0.010788904
-0.073811896 -0.09213206 -0.054578964 0.00026534594 0.043982744 -0.07729211 -0.07552383 -0.053709242
-0.07707292 -0.028573113 -0.0387071 -0.07169197 0.035569806 0.03538793 0.003732821 -0.018785227
-0.034839254 0.014211853 0.030134438 0.033958826 0.028730545 0.04376535 0.034249295 -0.006492479
00000000: f4a2 6b3c 903b 38bc 45d3 bbbb 677a 73bd
00000010: 6abe bebc 0d88 a0bc b461 d4ba f8b3 b2bd
00000020: a8ad 6ebd 8fde f8bc 5407 6d3c cbd3 c73b
00000030: b0f2 363d fffa 5dbd 9e75 a5bc ef6f 9dbc
00000040: 731a 5e3b 2e34 ab3b 4532 8cbd d565 02bd
00000050: 4d95 8bbc 91f7 3f3c 7d41 98bd 1ea7 5fbc
00000060: d4da e1bc 8222 f7bb 3a87 513d 6437 25bd
00000070: 03f0 153d a554 ef3c 9596 3c3d 3d6d a6bc
00000080: 7534 2b3b c29f 443c a217 91bc 370d 783c
00000090: ac23 f83c 8533 ebbc 5b87 cb3c e5d6 cfbc
000000a0: 6814 05bd 32e9 6c3c 3c2d 34bd dcc5 3d3d
000000b0: efcb c23a 2895 9abd 2054 cf3c d549 3c3d
000000c0: b972 b93b 5539 a73a daa2 e63c c42c 983c
000000d0: 712a 923c ba79 1fbd 7572 9d3c 2ce2 94bd
000000e0: aa1f 003c b50c de3b 031a f9bd 9aa6 babd
000000f0: 858b 73bd 6d13 adbd d5d8 60bd 8369 653c
00000100: 00e4 813c ca62 4fbc 2e71 bcbd 0e23 c0bc
00000110: 94bf 36bc d8f2 60bd dd8c 90bd 3a1e edbc
00000120: 5503 093c 62d6 5f3c 42d9 94bd 8d2e 94bd
00000130: 4b6f 4bbc a434 363c f309 8cbd 3f3a 94bb
00000140: b715 dcbc ce36 2ebd 3c84 d63c f34f 5abd
00000150: 1b26 ccbd 2d69 89bd 3907 89bb b00c 373b
00000160: 05eb 01be 66e2 f1bc 1a23 36bc 485c 0bbd
00000170: 82b7 9cbc df7e 06bd 79fb c8bc 524b 153d
00000180: d642 b6bb 6a4f 22bd ad31 863d aa55 be3c
00000190: fe53 0d3c 9389 59bd fb4e 2fbd d7f9 99bb
000001a0: 4578 65bd 36b6 083d 7344 2abd e48a afbd
000001b0: 3ce3 843d 3361 073d 47df 6fbd 31fa 9abc
000001c0: 3514 42bb ad63 963c daf4 a13c a112 03bd
000001d0: 6bba abbd 2d84 8ebc ba90 c43c 86c2 b9bc
000001e0: 3537 953a 0f2a 113d e06b a83c 9c67 113c
000001f0: 4d5b 68bd 13fd 03bc d64e fcbc ab05 65bb
00000200: 08c5 6cbd 6ffd 573c af8d b1bc cd6e 47bd
00000210: 4db9 1c3d 968a 773c 8b58 45bd 5036 86bd
00000220: b4c9 e93c f31b 6cbd 5a73 a33c 9631 b0bd
00000230: d3b9 903c c3b2 803b 5647 a8bd bf97 33bd
00000240: 60fc 353d 1f1d f83c 1bb7 183d cae7 efbc
00000250: 96d2 2fbd 6d55 2d3d 8cec 31bb 9543 49bd
00000260: 6d70 e83c 0388 74bd 5112 6abc 7434 4c3c
00000270: fce9 3cbd 4789 55bd 44dc 283c f8f3 84bd
00000280: 17d5 8dbd 897c 9f3b 97c5 113d fafa 53bd
00000290: 6abc 49bc 64c6 bebd 6434 ddbd 9703 c23c
000002a0: 9570 6f3c 2500 9fbd ecb8 61bd 0370 8bbd
000002b0: 458a abbd b94a 64bc c2b0 f3bc a93a 92bd
000002c0: 7ddd 46bd 0245 36bd 5347 84bd 4936 05bd
000002d0: 11d9 48bd c2e7 0cbd 8fe5 acbc 4644 82bc
000002e0: 0070 6a3c 509c 9dbd 1306 acbc 5e36 51bd
000002f0: fa89 89bd ee59 043d b308 2bbd 7861 953c
00000300: 582e 623c 63ac 38bc 4ee7 8fbd 79f0 3a3d
00000310: b239 223d 6181 52bd d678 78bd b01e 3f3c
00000320: c042 a43c e628 60bc 4a57 fc3c 17ea 42bd
00000330: 5193 363c 380c 1bbc d3ff acbc 6e19 20bd
00000340: 0b6f 07bc 6dc2 8f3c 49f5 a3bc 26f6 1f3c
00000350: c2a0 bdbc 54fb d6bc 09d0 4a3d 31df 44bd
00000360: 83fb 243c c05c 003d 846f b0ba 3ccb 513d
00000370: c1be 68bd 215c 7f39 a117 133d 2a73 133d
00000380: 4597 7fbc d2f0 81bd 3120 183d 72cd d03b
00000390: 8ada a5bd 3546 acbd c649 a7bd f1c3 30bc
000003a0: b12a 97bd bcaf bcbd 318e 5fbd 211e 8b39
000003b0: 4027 343d 534b 9ebd 3dac 9abd 39fe 5bbd
000003c0: 68d8 9dbd 2912 eabc 568b 1ebd 3dd3 92bd
000003d0: a5b1 113d eff2 103d 58a2 743b 7ae3 99bc
000003e0: 9bb3 0ebd d5d8 683c 7fdc f63c 6918 0b3d
000003f0: 525c eb3c 4c43 333d fd48 0c3d dcbe d4bb

model.2.0.bias f4 [64]
-0.016724003 -0.016382294 -0.08489475 -0.054412756 -0.0187683 -0.030532219 0.057852764 0.040252995
0.0037251043 0.07285979 0.009191437 -0.00013673533 -0.08040387 -0.03779386 -0.057978507 -0.088837944
-0.03923548 -0.0154474275 0.024801273 0.0005708686 -0.038363446 -0.038634505 -0.009377039 0.047192056
-0.11568698 -0.046206467 0.045741983 0.0029199806 0.04539195 -0.0486081 -0.008231497 -0.008704971
-0.039289728 -0.047522247 -0.006377573 -0.0020527272 -0.07875836 0.040024143 -0.027406195 -0.03259234
-0.019138943 -0.049154334 -0.084844284 -0.0019161175 -0.069599174 -0.07229573 0.042065058 -0.036299646
0.0048993835 -0.09424787 -0.0014259585 -0.05195827 -0.045282222 0.014506142 0.054932684 -0.0010904376
-0.09028707 -0.061067313 0.054148342 -0.04578541 -0.017362773 0.018008502 0.06358349 -0.018059267
00000000: c700 89bc 2934 86bc 4cdd adbd e9df 5ebd
00000010: fabf 99bc b41e fabc 05f7 6c3d 53e0 243d
00000020: e120 743b 8337 953d ae97 163c 9c60 0fb9
00000030: c9aa a4bd bccd 1abd df7a 6dbd abf0 b5bd
00000040: 62b5 20bd 3517 7dbc 0a2c cb3c 58a6 153a
00000050: fd22 1dbd 373f 1ebd 27a2 19bc 754c 413d
00000060: 4ced ecbd fe42 3dbd f25b 3b3d 255d 3f3b
00000070: e9ec 393d 4919 47bd 67dd 06bc 4b9f 0ebc
00000080: 44ee 20bd b0a6 42bd f6fa d0bb 0c87 06bb
00000090: 104c a1bd 5bf0 233d f582 e0bc 8c7f 05bd
000000a0: 46c9 9cbc 0e56 49bd d7c2 adbd 3c26 fbba
000000b0: 038a 8ebd c90f 94bd 694c 2c3d f0ae 14bd
000000c0: 028b a03b 0705 c1bd 3ae7 baba 32d2 54bd
000000d0: da79 39bd 2bab 6d3c 1801 613d 04ed 8eba
000000e0: 6de8 b8bd b821 7abd a7ca 5d3d 7b89 3bbd
000000f0: 603c 8ebc 9186 933c 1038 823d 07f1 93bc

model.4.weight f4 [64, 1024]
-0.011008465 0.017544933 -0.011256745 -0.0132073015 0.016092777 0.017351395 0.005761469 0.027321694
-0.015226308 -0.0011519197 -0.0020872098 0.027499678 -0.026349619 -0.05498077 -0.043297097 -0.0066561773
-0.030132843 0.01948324 0.007003039 -0.0003026521 -0.0029575394 0.005508844 0.0094234925 0.0033682394
-0.028026933 -0.020941485 0.026578372 0.03300412 -0.026066331 -0.027166182 0.030836396 -0.025302341
-0.023594944 0.022095853 0.02184051 0.017491778 -0.024068275 -0.019516582 -0.019998591 -0.0359771
0.0037870458 -0.017280696 -0.011171042 -0.0012700212 -0.020437172 -0.02539089 -0.023067188 -0.004897517
-0.01727807 -0.01665911 0.030033669 0.030915536 -0.019092182 -0.038409214 0.01382788 0.0051827226
0.0076693315 0.0014761587 0.02603775 0.032769658 0.0629099 -0.0024785122 0.003495917 0.043246865
-0.018889382 0.00010150237 0.013639699 -0.0077157705 -0.0009206827 0.04430839 0.037139524 -0.030659394
-0.010530674 0.012273795 0.011326223 -0.025390236 -0.0021953608 0.0057532666 -0.021653557 -0.032204017
0.006861776 0.006944093 0.023906546 -0.015321142 0.0154297175 -0.020339971 -0.0038422088 0.005472859
-0.05283883 -0.01887024 0.0075190132 -0.02415539 -0.02979545 0.0032066195 -0.0034675703 -0.018622762
0.018530846 0.029906 0.013780476 0.011279472 0.000332481 -0.017853642 -0.031709984 0.02493842
-0.022568183 -0.025760548 0.004722396 -0.021355812 -0.022233618 -0.01180264 -0.00821642 -0.016608668
0.0077763987 0.012188197 0.02074762 -0.018640375 0.026063105 -0.0038695107 0.027961757 0.018160822
0.009149075 -0.0127463825 -0.007052965 -0.0054653077 -0.02899019 0.019828299 0.0075283293 -0.031052144
0.010902329 -0.010629218 0.0036564725 0.0005796067 0.02287451 0.012760175 0.001199239 0.0023313554
0.008043631 -0.0180943 0.040364947 0.019728798 0.004261368 0.006568304 0.021561956 0.029633563
-0.02067114 0.019356772 0.0051411125 -0.027021537 -0.017998079 0.01754653 0.025940595 0.0044841543
0.01609501 -0.010449205 0.016319511 -0.011656013 0.02566317 -0.042915583 -0.001017934 0.0018936358
-0.029699154 0.033580326 -0.0047975816 0.011397973 0.010278303 -0.00013139294 0.019886395 -0.00946581
-0.02569395 0.042484894 0.026965871 -0.04634054 -0.013151273 -0.009405635 0.023916634 -0.05029741
0.0054471768 0.017212886 -0.027072243 0.016191872 -0.009281074 0.031439897 -0.012752846 -0.02663169
-0.021322 -0.036357827 -0.043681126 0.014834677 -0.025129046 0.025232231 0.0018602138 -0.015878942
-0.023834165 0.022056222 0.0028101755 -0.022377716 -0.0025632547 -0.013018669 0.03142057 0.0014652208
-0.0005927948 0.016422737 -0.0448064 0.0036854015 0.04219174 0.0026670601 -0.017246123 -0.026608089
-0.017731313 -0.00067196257 0.009289803 0.006557675 -0.019937837 0.000846928 0.009771216 -0.026759354
0.010932995 0.026065724 0.018446384 -0.01451851 0.018921772 -0.011254597 -0.004589831 -0.029135397
0.003414835 0.029867802 0.015322122 -0.01220906 0.037066426 0.0073943473 0.027602805 0.019548384
-0.008086667 0.029063994 -0.0015606146 0.012938951 0.0122902095 -0.011935063 0.0077835983 -0.04479213
-0.011588113 0.039285112 -0.030621482 -0.02732902 0.0012305374 0.038177375 0.046785645 0.008010971
0.0027503134 -0.0047822 -0.023458827 -0.0019349151 0.024671933 0.01865224 0.005976243 0.030709757
00000000: d95c 34bc 64ba 8f3c 366e 38bc 7063 58bc
00000010: 00d5 833c 8324 8e3c b4ca bc3b bfd1 df3c
00000020: c477 79bc 03fc 96ba 92c9 08bb 0147 e13c
00000030: 28db d7bc 8433 61bd 4c58 31bd 101c dabb
00000040: 27d9 f6bc 519b 9f3c c079 e53b 47ad 9eb9
00000050: 47d3 41bb 8883 b43b fe64 1a3c aebd 5c3b
00000060: bd98 e5bc 7a8d abbc e3ba d93c 542f 073d
00000070: 0f89 d5bc 9d8b debc 9c9c fc3c db46 cfbc
00000080: 2f4a c1bc 5d02 b53c dfea b23c eb4a 8f3c
00000090: d52a c5bc 3de1 9fbc 16d4 a3bc b95c 13bd
000000a0: 1630 783b 3f90 8dbc bf06 37bc d776 a6ba
000000b0: db6b a7bc 8e00 d0bc 66f7 bcbc 5a7b a0bb
000000c0: bd8a 8dbc b078 88bc 2b09 f63c 9442 fd3c
000000d0: 3567 9cbc fb52 1dbd 558e 623c d4d3 a93b
000000e0: 044f fb3b ab7b c13a 1f4d d53c 7a39 063d
000000f0: e8d6 803d 896e 22bb c11b 653b a023 313d
00000100: e8bd 9abc acdd d438 0b79 5f3c 93d4 fcbb
00000110: f859 71ba b77c 353d 9d1f 183d 6929 fbbc
00000120: d988 2cbc 0718 493c 9f91 393c 2fff cfbc
00000130: 0be0 0fbb e685 bc3b cd62 b1bc 5ce8 03bd
00000140: c0d8 e03b 468b e33b a9d7 c33c 8705 7bbc
00000150: edcc 7c3c 03a0 a6bc 91cd 7bbb ab55 b33b
00000160: 876d 58bd c395 9abc 0e62 f63b 86e1 c5bc
00000170: 9615 f4bc 2626 523b 2d40 63bb c38e 98bc
00000180: 00ce 973c 6dfd f43c 81c7 613c 89cd 383c
00000190: d850 ae39 cd41 92bc 54e2 01bd a84b cc3c
000001a0: e9e0 b8bc c907 d3bc 54be 9a3b 62f2 aebc
000001b0: 4723 b6bc dc5f 41bc 2a9e 06bc e70e 88bc
000001c0: 29d1 fe3b 01b1 473c eaf6 a93c b3b3 98bc
000001d0: 4b82 d53c 9e97 7dbb 0e10 e53c 01c6 943c
000001e0: 00e6 153c 34d6 50bc 8f1c e7bb 5316 b3bb
000001f0: d67c edbc f56e a23c 34b0 f63b 1161 febc
00000200: af9f 323c 2c26 2ebc 6ea1 6f3b bff0 173a
00000210: 5363 bb3c 0e10 513c c92f 9d3a a7c9 183b
00000220: 6fc9 033c 7f3a 94bc b755 253d 4a9e a13c
00000230: f2a2 8b3b ed3a d73b b3a2 b03c 16c2 f23c
00000240: 8656 a9bc 1892 9e3c c776 a83b 455c ddbc
00000250: b570 93bc bebd 8f3c 5f81 d43c d0ef 923b
00000260: afd9 833c 2433 2bbc 7fb0 853c ddf8 3ebc
00000270: 913b d23c 40c8 2fbd 326c 85ba e033 f83a
00000280: a44b f3bc 868b 093d 0835 9dbb 90be 3a3c
00000290: 5466 283c 86c6 09b9 cbe8 a23c 7c16 1bbc
000002a0: 1e7c d2bc a404 2e3d 88e7 dc3c 94cf 3dbd
000002b0: 7078 57bc 181a 1abc d1ec c33c a804 4ebd
000002c0: 3b7e b23b 0a02 8d3c 9cc6 ddbc d1a4 843c
000002d0: a50f 18bc 1fc7 003d 50f1 50bc b42a dabc
000002e0: 7aab aebc f2eb 14bd fbea 32bd 250d 733c
000002f0: 6edb cdbc d3b3 ce3c 6bd2 f33a 8e14 82bc
00000300: de3f c3bc 40af b43c ec2a 383b 7951 b7bc
00000310: 47fc 27bb 414c 55bc dbb2 003d a70c c03a
00000320: c965 1bba fa88 863c ea86 37bd c786 713b
00000330: 3fd1 2c3d d8c9 2e3b be47 8dbc 35f9 d9bc
00000340: 4241 91bc a526 30ba 4234 183c c4e1 d63b
00000350: ad54 a3bc 6004 5e3a 7317 203c 6f36 dbbc
00000360: 4e20 333c c987 d53c df1c 973c 0bdf 6dbc
00000370: d501 9b3c 3465 38bc 4b66 96bb 5bad eebc
00000380: 6dcb 5f3b 52ad f43c a309 7b3c 8208 48bc
00000390: f7d2 173d 484c f23b 471f e23c ef23 a03c
000003a0: f17d 04bc 9d17 ee3c 898d ccba e5fd 533c
000003b0: e05c 493c 488b 43bc 8e0d ff3b f477 37bd
000003c0: 12dc 3dbc 6de9 203d e7d9 fabc 1ce1 dfbc
000003d0: fc49 a13a e15f 1c3d 4ea2 3f3d 7340 033c
000003e0: 9a3e 343b 00b4 9cbb ba2c c0bc fa9c fdba
000003f0: cb1c ca3c 95cc 983c 5cd4 c33b 0793 fb3c

model.4.bias f4 [64]
0.010203308 0.024014194 0.044375695 0.026501758 0.009215059 -0.029787313 -0.0028938232 -0.008061656
-0.014539587 -0.0001697388 0.002791576 0.052046414 0.028341247 0.045270767 0.0065250434 -0.039764103
-0.041261267 0.00424686 -0.00027949314 0.007824412 0.015616684 0.040874958 0.020657502 -0.041519295
0.003629779 0.03576444 0.015014317 -0.014886255 0.020721052 -0.007984242 -0.007055302 0.0062269936
-0.006722212 -0.008902757 0.015365098 -0.010969347 0.034286223 -0.017855534 0.047624227 -0.029922267
-0.042409603 0.012394539 0.009623718 -0.0046493574 -0.040758573 0.026566645 -0.010059184 0.010707479
-0.004235441 0.056179237 -0.032632023 0.017726231 0.028554438 0.012876771 0.04952405 -0.026079673
0.009417787 -0.0093591 0.04811262 0.021251434 0.041616566 0.0008532371 -0.0014535359 0.0094309505
00000000: c72b 273c 6ab9 c43c 4ac3 353d 371a d93c
00000010: c2fa 163c 8604 f4bc 4ca6 3dbb 0915 04bc
00000020: 7337 6ebc eafb 31b9 e0f2 363b 9f2e 553d
00000030: e72b e83c d76d 393d 08d0 d53b afdf 22bd
00000040: 9301 29bd 3e29 8b3b ef88 92b9 f631 003c
00000050: 1fdd 7f3c 806c 273d ec39 a93c 2310 2abd
00000060: 96e1 6d3b bc7d 123d 9cfe 753c 7be5 73bc
00000070: 32bf a93c 57d0 02bc 2a30 e7bb cf0b cc3b
00000080: 0046 dcbb dfdc 11bc e4bd 7b3c c7b8 33bc
00000090: b66f 0c3d c545 92bc 9f11 433d 8b1f f5bc
000000a0: b1b5 2dbd 7712 4b3c cdac 1d3c a359 98bb
000000b0: 76f2 26bd 4ba2 d93c 47cf 24bc 6c6e 2f3c
000000c0: 74c9 8abb 331c 663d 28a9 05bd 9a36 913c
000000d0: ffea e93c 18f9 523c bbd9 4a3d 0aa5 d5bc
000000e0: 104d 1a3c e956 19bc bd11 453d 7d17 ae3c
000000f0: 2276 2a3d c6ab 5f3a 9284 beba 4684 1a3c

model.5.weight f4 [10, 64]
-0.04253905 -0.13450675 -0.12108525 0.012327728 -0.12269781 0.20690767 -0.0697774 0.1186613
-0.02167451 -0.026380349 0.11844405 -0.17636855 -0.2544237 -0.095888406 -0.09716651 0.20682128
0.114149876 0.11659638 -0.08235137 -0.17851028 0.012429135 -0.18879436 0.05355087 0.14361492
0.01801786 -0.072044946 -0.10672298 -0.09100395 -0.011358745 -0.026765471 0.0041173236 0.14423347
0.100482866 0.222846 -0.054666765 -0.037849255 -0.093498304 -0.016253028 -0.07018674 0.13437219
-0.062321782 0.15547332 0.08120137 0.10117827 0.13856013 -0.016234871 -0.1333429 0.19219595
-0.109274216 -0.19739741 -0.016279818 -0.05653139 -0.17666392 0.03164634 -0.115939416 0.25712034
-0.10250652 -0.10939138 -0.0749728 0.023515113 -0.12961145 -0.014289947 -0.101025045 -0.26193312
0.11982527 0.04528437 -0.04524504 0.2430732 -0.13543662 -0.14517964 -0.10576686 -0.08376625
0.08145136 0.22817479 0.24720508 -0.1606696 -0.2506315 0.114960015 0.024069902 0.13171273
0.117541276 0.20512608 0.22412214 -0.1855609 0.13986543 0.08406761 -0.06349626 -0.11613791
-0.038181927 0.107773684 0.048231654 0.16087355 -0.27994478 0.040318284 0.0424362 -0.12974499
-0.2292675 -0.11808601 -0.07626939 0.15788156 0.17226456 0.0029847892 0.118977204 0.1290663
-0.19026956 -0.13191654 -0.24213481 0.15498053 0.21703799 0.2625495 0.32169414 0.006328227
0.021939585 0.09938755 -0.24001889 -0.024495548 -0.12332463 0.11842878 0.16944824 3.190264e-05
0.23179932 0.08483875 0.14713247 0.0742685 -0.2428339 -0.0036217317 0.25176242 -0.12995636
0.18047689 -0.06486813 -0.054659165 -0.05413805 0.19273907 -0.07699259 0.10994917 0.07558363
0.0803231 -0.03471861 -0.24198742 -0.15054934 0.23795466 -0.04330687 0.060214423 0.11414093
-0.002640693 -0.21461523 0.04410891 0.04733052 -0.10279322 -0.14942119 0.22785306 0.063734464
0.09697435 0.11447677 -0.042274952 0.052446887 -0.07930497 0.020991152 0.13092744 0.08044953
0.17544186 0.09627258 -0.1736972 -0.02136149 -0.16594417 -0.00460012 -0.10795658 0.0492264
-0.1463415 0.22310816 -0.0076366635 0.12286171 -0.18251795 -0.15451123 -0.19789277 -0.112819694
-0.11831117 -0.13788733 -0.13298674 0.005799031 -0.06706592 0.09266972 0.08347489 0.10660229
0.041463535 -0.14889055 -0.2673277 -0.09298161 0.08726028 0.15913117 0.09973553 0.1530367
-0.042816594 0.15915272 0.20322818 0.008002146 -0.0992162 -0.03055529 0.11225583 0.039893884
-0.10452346 0.10596249 -0.18092059 0.08079906 0.1398217 -0.06946772 -0.16356383 -0.025678726
0.056563936 -0.05740873 0.0279055 0.10917183 0.07086448 0.07596688 0.05429573 -0.053961772
0.10777325 0.052593883 -0.08480138 0.09505508 0.15701018 -0.18100739 0.117977194 -0.013932448
0.053419076 -0.0872895 0.121411175 -0.08440866 -0.14598109 0.15786746 0.0201124 0.049727276
-0.14404936 -0.15515012 0.0144807035 0.04574899 -0.018231677 -0.116076306 -0.17731446 0.077099144
0.18371105 -0.08132038 0.1357984 -0.024951732 0.060083076 0.0733529 0.053716097 -0.13158415
0.0065496885 -0.20856601 0.029143779 -0.05615496 0.17936401 -0.025684321 -0.06155178 -0.084837645
00000000: 6d3d 2ebd 23bc 09be 8bfb f7bd 3dfa 493c
00000010: fd48 fbbd 9bdf 533e 74e7 8ebd b204 f33d
00000020: be8e b1bc 9a1b d8bc cb92 f23d f599 34be
00000030: d343 82be 2461 c4bd 3cff c6bd f5c8 533e
00000040: 69c7 e93d 15ca ee3d d6a7 a8bd 66cb 36be
00000050: 92a3 4b3c 4f53 41be 2858 5b3d ca0f 133e
00000060: 319a 933c 4d8c 93bd 9491 dabd 4760 babd
00000070: 081a 3abc 4343 dbbc 9dea 863b f0b1 133e
00000080: f6c9 cd3d be31 643e 42ea 5fbd d207 1bbd
00000090: 0a7c bfbd 1225 85bc 11be 8fbd dd98 093e
000000a0: 2045 7fbd 6634 1f3e e74c a63d 8e36 cf3d
000000b0: b5e2 0d3e fefe 84bc 0b8b 08be 04cf 443e
000000c0: 29cb dfbd 8c22 4abe 415d 85bc 758d 67bd
000000d0: 63e7 34be 989f 013d a571 edbd 47a5 833e
000000e0: f0ee d1bd 9608 e0bd 578b 99bd c4a2 c03c
000000f0: ddb8 04be 6220 6abc 38e6 cebd 191c 86be
00000100: f366 f53d 1b7c 393d dd52 39bd 2ee8 783e
00000110: e6af 0abe f9a9 14be 4c9c d8bd a48d abbd
00000120: f8cf a63d a7a6 693e 5423 7d3e 9286 24be
00000130: c652 80be 2870 eb3d 3e2e c53c b4df 063e
00000140: 7bb9 f03d 920c 523e 4680 653e ad03 3ebe
00000150: e238 0f3e a42b ac3d 540a 82bd b6d9 edbd
00000160: a764 1cbd 73b8 dc3d 8e8e 453d 09bc 243e
00000170: ec54 8fbe c924 253d 95d1 2d3d dfdb 04be
00000180: 19c5 6abe 14d7 f1bd 2033 9cbd b4ab 213e
00000190: 1f66 303e 749c 433b 52aa f33d f529 043e
000001a0: 06d6 42be 2115 07be 30f2 77be 37b3 1e3e
000001b0: 353f 5e3e e36c 863e 18b5 a43e 045d cf3b
000001c0: a5ba b33c b38b cb3d 83c7 75be e3aa c8bc
000001d0: a091 fcbd ca8a f23d d783 2d3e 33cf 0538
000001e0: cd5c 6d3e f0bf ad3d e5a9 163e 151a 983d
000001f0: 73a9 78be 935a 6dbb 01e7 803e 4813 05be
00000200: efce 383e 95d9 84bd 4ae2 5fbd dcbf 5dbd
00000210: 645d 453e 4bae 9dbd 082d e13d 97cb 9a3d
00000220: 7080 a43d 1a35 0ebd 8dcb 77be 9b29 1abe
00000230: 63aa 733e 8b62 31bd 66a3 763d b8c2 e93d
00000240: 7a0f 2dbb 18c4 5bbe 8bab 343d a6dd 413d
00000250: 4085 d2bd de01 19be 5052 693e 3787 823d
00000260: 7d9a c63d cc72 ea3d 8028 2dbd 8cd2 563d
00000270: a56a a2bd a3f5 ab3c d811 063e b9c2 a43d
00000280: 08a7 333e 8f2a c53d aedd 31be 4bfe aebc
00000290: 45ed 29be 9abc 96bb 5718 ddbd 9fa1 493d
000002a0: 8cda 15be 7776 643e fa3c fabb ec9e fb3d
000002b0: fce5 3abe 3138 1ebe 67a4 4abe 030e e7bd
000002c0: 204d f2bd 5632 0dbe ad2d 08be cc05 be3b
000002d0: db59 89bd 9fc9 bd3d e2f4 aa3d 4d52 da3d
000002e0: abd5 293d c476 18be 2ddf 88be 246d bebd
000002f0: 85b5 b23d 48f3 223e 2442 cc3d a7b5 1c3e
00000300: 7460 2fbd eef8 223e 0c1b 503e 6f1b 033c
00000310: dd31 cbbd 164f fabc 62e6 e53d c567 233d
00000320: 6510 d6bd dd02 d93d 3f43 39be fa79 a53d
00000330: 6b2d 0f3e 1845 8ebd 477d 27be 315c d2bc
00000340: 96af 673d 6b25 6bbd 139a e43c 7b95 df3d
00000350: 6621 913d 8694 9b3d 3365 5e3d 0507 5dbd
00000360: 39b8 dc3d af6c 573d 59ac adbd 3dac c23d
00000370: 47c7 203e 005a 39be 079e f13d ec44 64bc
00000380: f6cd 5a3d d6c4 b2bd 6ca6 f83d 73de acbd
00000390: 117c 15be 02a8 213e c3c2 a43c d4ae 4b3d
000003a0: ad81 13be acdf 1ebe 7940 6d3c 4b63 3b3d
000003b0: 995a 95bc 6ab9 edbd ec91 35be 28e6 9d3d
000003c0: c01e 3c3e 4d8b a6bd bc0e 0b3e 9367 ccbc
000003d0: ac19 763d 0c3a 963d 6905 5c3d ffbd 06be
000003e0: c59e d63b 5492 55be efbe ee3c be02 66bd
000003f0: 33ab 373e ed67 d2bc b81d 7cbd 5cbf adbd

model.5.bias f4 [10]
-0.10290287 0.1049525 0.0682037 0.009091091 0.12305237 -0.026007535 0.039177068 -0.07078537
-0.0337784 0.0522041
00000000: bdbe d2bd 56f1 d63d 62ae 8b3d cdf2 143c
00000010: e202 fc3d c10d d5bc 2278 203d ecf7 90bd
00000020: 385b 0abd f7d3 553d
