4_深度学习计算/MLP.pt (torch, 33159 bytes, 4 tensors)

hidden.weight f4 [256, 20]
000000 9d d3 89 bd f3 a4 98 3d 42 50 48 3e 5a 5b 29 3e
       -0.06729815 0.074533366 0.19561866 0.16538754
000010 42 1d 2d 3e b2 80 b5 3d 4d f7 2b 3e b2 b6 21 3e
       0.16905692 0.08862437 0.16793557 0.15792349
000020 90 77 25 3e 81 14 41 be d3 96 65 3d 7d 19 ec bd
       0.1615889 -0.18855478 0.05605204 -0.11528299
000030 09 d6 df 3d 51 54 a2 bc 33 24 e6 3c 3a a1 3a bd
       0.10929496 -0.019815596 0.028093433 -0.045563914
000040 33 ba 26 3e 4a f7 31 3e 34 87 08 3e d2 0b 64 3e
       0.16281967 0.1737949 0.13332826 0.22270134
000050 c5 1b 20 be fe 4a 05 3e 31 44 09 3e 7c e0 01 be
       -0.15635593 0.13016888 0.13404919 -0.1268329
000060 ae 7e 86 bd 98 b9 af bd 2f b8 ee bc 60 e9 4b be
       -0.06567131 -0.08580321 -0.02914056 -0.19913244
000070 37 d1 9b bd 7f 28 16 bd b1 db f4 bd 46 c0 91 3d
       -0.07608264 -0.036659714 -0.11955965 0.071167514
000080 82 ea 03 3e 40 39 da bb 2a cc 6b 3d b3 1e d4 3d
       0.12882426 -0.0066596568 0.057567753 0.10357418
000090 eb ff 66 3d 4e 0b f4 bd d7 e3 dd bd 95 3c 99 3d
       0.056396406 -0.11916219 -0.108344726 0.07482258
0000a0 c7 8d ec 3d d1 8a 2e be ab d1 47 3e 9c 29 49 3e
       0.115504794 -0.17045142 0.19513576 0.19644779
0000b0 ab ab 3f be 28 7e 40 bd b8 db 73 3d 92 01 11 be
       -0.1871783 -0.046995312 0.059535712 -0.14160755
0000c0 01 ac b4 bd 37 ae 9e 3d 4b b3 a1 bd ae e3 32 3d
       -0.0882187 0.077480726 -0.078955255 0.043674164
0000d0 3a 1f 10 be 98 0f 1a 3e a1 77 47 be ce ee 10 3e
       -0.14074412 0.15045011 -0.19479229 0.14153597
0000e0 be d1 36 be a7 92 0a 3e ba 46 3d 3d 0c 6f dc 3d
       -0.17853448 0.13532506 0.04621003 0.10763368
0000f0 8c e0 4c 3e f9 7d 28 3e 9e 3f 8b bd 0f 9a 34 3c
       0.20007533 0.16454305 -0.067992434 0.011023059
000100 db c7 9c bb 11 67 35 be e9 e4 ca bd 4f a3 c2 3c
       -0.004784567 -0.17715098 -0.099069424 0.023759512
000110 5d 14 83 bd 70 b0 4e 3d fb e8 2a 3e c2 a7 c5 bb
       -0.06400368 0.050461233 0.16690437 -0.006031961
000120 cb d9 2c 3e bb 9c 88 bd 9d a5 39 bd e4 f0 2a be
       0.16879956 -0.06670519 -0.045323957 -0.16693455
000130 66 14 d3 bd 9a 78 f2 3d 3e 81 36 bd 3c 47 0e be
       -0.10306625 0.11839409 -0.04455685 -0.13894361
000140 c4 75 1e 3d 78 03 77 bd 9b 2b e6 3d 61 3e 38 3e
       0.03868653 -0.060306042 0.11238786 0.17992546
000150 11 f6 ee 3d 96 65 2f bd 0f 26 03 3d 4a b0 d8 3d
       0.11668027 -0.04282149 0.032018717 0.105804995
000160 20 c6 8f 3c 25 59 47 be 4d 2e 82 bc ee 8e c0 bd
       0.017550528 -0.194676 -0.015891219 -0.09402262
000170 0b 4a 56 3d 12 13 79 3d 95 e3 49 3d 35 61 f8 bd
       0.052316707 0.060809202 0.049289305 -0.12127916
000180 87 3c 25 be 76 0d 32 3c 0a 52 b1 bd 3e a3 cb 3c
       -0.1613637 0.010867467 -0.08658226 0.024858113
000190 0c 0d 12 be 04 d3 21 3d 9d b0 24 bd ca d8 39 3d
       -0.1426279 0.03950788 -0.040207494 0.04537276
0001a0 f9 1f 17 be a1 c4 50 be 0a f1 42 bd 2f ab 04 be
       -0.1475829 -0.20387508 -0.047593154 -0.12955926
0001b0 7e 31 36 be a7 c6 06 be 79 07 25 be 7c 62 cf 3d
       -0.17792317 -0.13161717 -0.16116132 0.10126206
0001c0 0c 04 53 bc 45 00 df bd 5c 51 e3 bd b9 02 20 bd
       -0.012879383 -0.10888723 -0.110995024 -0.039065097
0001d0 10 d8 9a 3c 35 ba 74 bd 8b 54 1c be 54 cd 25 3e
       0.018901855 -0.059747893 -0.15266626 0.16191608
0001e0 74 f8 98 3d 86 9e e5 bd aa e1 d8 bd cd 51 60 3d
       0.07469264 -0.112118766 -0.10589917 0.05476551
0001f0 37 cf 31 3d f2 f6 8a 3d 40 61 d3 3d 1d c8 28 3e
       0.043410506 0.06785382 0.10321283 0.16482587
000200 0b 3a a2 3a 45 b6 04 3e f0 04 60 3d 49 06 17 3c
       0.0012376917 0.12960155 0.05469221 0.009217807
000210 e5 26 12 3d 52 85 22 3e b5 8b c4 bd 50 57 30 be
       0.035681624 0.1587117 -0.095969595 -0.17220807
000220 6b 00 32 3e a6 33 b4 3c 11 cb c9 3d db eb 51 3e
       0.17382972 0.021997284 0.09853185 0.20500128
000230 11 96 74 3d 81 05 5d be 8c f5 90 3d 6d e4 55 be
       0.059713427 -0.21584131 0.07078084 -0.20887919
000240 16 6b 69 bd dc d3 08 be ed 3e 30 3e c6 33 c3 3d
       -0.05698689 -0.13362068 0.17211504 0.095313594
000250 ce be 13 be cf 5e c6 bd 3d cb 02 be a8 d4 3a 3e
       -0.14428255 -0.09686052 -0.12772842 0.18245184
000260 1b 4b 5f 3e 15 a8 42 be e1 0c 8e bd 81 e9 de 3d
       0.21805994 -0.1900943 -0.0693605 0.10884381
000270 83 1a 53 be a8 a4 55 3c 14 44 6e bd e3 dc 1c be
       -0.20615582 0.013039745 -0.058170393 -0.15318637
000280 23 65 88 bd 5e 33 43 bd fa 39 61 3e 33 86 ea 3d
       -0.06659915 -0.04765641 0.21994773 0.11451378
000290 79 e7 54 be 8f 0e b5 bb 51 f6 fc bc 1a 0e 21 3d
       -0.20791425 -0.005525417 -0.030879172 0.03932009
0002a0 7a 53 82 3c 62 61 1e be a8 17 41 3e 60 c9 53 be
       0.015908945 -0.15466836 0.1885668 -0.20682287
0002b0 7e 6c 37 3e 2d 49 bf bd 40 d4 5d be f8 c5 1d be
       0.1791248 -0.09340129 -0.21662998 -0.1540755
0002c0 46 d5 16 be 04 b3 13 3c 51 51 1d 3e 99 c0 cf bc
       -0.14729795 0.009014849 0.15363051 -0.025360392
0002d0 0b 0f 0d bc 7f c7 2b 3e cf 03 bc 3a 19 92 64 3e
       -0.008609544 0.1677532 0.0014344397 0.22321357
0002e0 46 ab ab bd 91 03 ef 3d 72 45 5b 3e 07 f3 21 be
       -0.08382277 0.11670602 0.2141321 -0.15815364
0002f0 90 08 eb bd 78 87 8d bd 01 65 22 bd 8c 6d 20 3e
       -0.114762425 -0.06910604 -0.039647106 0.15666789
000300 6d cd 4e 3d 0c a2 ed bd 18 83 64 3e 0f ba 42 3d
       0.050488878 -0.116031736 0.22315633 0.04754072
000310 c7 b4 32 bd 1b 5e 41 be a3 1e 38 3c b9 5c 97 3d
       -0.043629434 -0.18883555 0.011237773 0.07390732
000320 28 3e 4a 3e 42 8f 2e 3c 1d 04 3a 3e 98 28 35 be
       0.19750273 0.0106542725 0.18165632 -0.17691267
000330 6e 05 56 be d5 9d 62 be b7 ec 46 3d 4b 8c 4e 3e
       -0.20900509 -0.2213052 0.048565593 0.20170705
000340 a0 fb a7 bd a0 09 2e 3d 79 83 70 bc 76 0b 4a be
       -0.082022905 0.042489648 -0.014679783 -0.19730935
000350 7c 34 43 3e 2c 6f 51 3e 12 57 14 3e e4 32 30 be
       0.1906299 0.20452565 0.1448634 -0.17206913
000360 e3 47 a6 3d 45 d9 ca 3d 86 48 18 be e2 9f 39 3d
       0.0811918 0.09904722 -0.14871415 0.04531849
000370 48 fd 41 3c b9 64 15 be 99 50 56 be 24 17 18 3d
       0.011840172 -0.14589204 -0.20929183 0.037131444
000380 46 dd cf 3b 48 2d 31 be 55 a4 31 3e fb 56 33 be
       0.0063435165 -0.1730243 0.17347844 -0.17513649
000390 b9 89 9d 3a c1 68 02 be 55 a4 9d bd 38 13 49 3e
       0.0012019194 -0.12735273 -0.076973595 0.19636238
0003a0 2d 35 cd bd 01 0b 41 3c fc ee 67 bd 38 fd 6b bd
       -0.10019908 0.011782409 -0.056624398 -0.057614535
0003b0 a4 69 83 3b 0f 4f 43 be 5c ad 47 be c8 74 1a be
       0.004010396 -0.19073127 -0.19499725 -0.15083611
0003c0 b1 fb 53 3e 74 ca 8d 3d 85 46 37 3d f8 26 58 3d
       0.20701481 0.069233805 0.044744987 0.05277154
0003d0 c9 ec 24 be 42 f5 51 be 82 a2 57 3d 69 63 9b 3d
       -0.16105951 -0.20503715 0.052645214 0.0758732
0003e0 b7 9e 5b 3e d4 ad 28 3e 56 1f e0 3d fc a1 5e be
       0.21447264 0.1647256 0.10943477 -0.2174148
0003f0 9f 25 e4 3d f3 75 87 3c 99 c0 fe bd 4a 28 be bd
       0.11139988 0.016535735 -0.12439079 -0.09285028

hidden.bias f4 [256]
000000 63 47 98 bd 62 d7 07 bd e2 00 0b be 57 8b 68 bd
       -0.07435491 -0.03316439 -0.13574556 -0.05677351
000010 f8 31 4f be af 96 1a be 0b d5 bf bd 53 9c b5 3b
       -0.20233905 -0.15096544 -0.093668066 0.005542317
000020 a2 e1 5e bc 56 3c 7f 3d dd cd a4 bd c5 1e b4 bd
       -0.0136036 0.0623134 -0.08047078 -0.08794931
000030 36 b8 9a bd cf 09 4d 3e 3a e1 27 3e f5 e0 06 3e
       -0.07554667 0.20023273 0.16394511 0.13171752
000040 b6 9d 15 3e 06 0e 05 3e ba ad 13 3e 1e 20 93 3d
       0.14610943 0.12993631 0.1442174 0.0718386
000050 ca 68 38 3e 03 c0 e7 3d a4 82 2f 3e 1d 92 42 3e
       0.18008724 0.1131592 0.17139679 0.1900105
000060 4b 4a b0 3d 9f 11 4d 3c a3 b3 64 3c db c2 bc bd
       0.0860792 0.012516408 0.013958844 -0.09216853
000070 f4 4b 97 3d 50 2b 3c 3e d3 9f 82 bd b1 a9 0b 3d
       0.07387534 0.18375897 -0.0637814 0.034097377
000080 67 7a c3 3d 35 4b b3 bc 7b 8f 38 3e 28 a5 0f 3e
       0.09544831 -0.021886447 0.18023483 0.14027846
000090 55 36 87 bd 90 40 44 3d 39 17 9e 3d ce 31 31 3e
       -0.0660216 0.047913134 0.07719273 0.17304155
0000a0 25 3e eb 3d 3c 32 d1 3d 4b 82 a9 bd df ef 18 be
       0.114864625 0.102146596 -0.082768045 -0.14935254
0000b0 e6 4c 1b be 7f 38 f1 3d 09 2a 1f 3e 9a bd 8f bd
       -0.15166053 0.11778354 0.15543379 -0.070185855
0000c0 fd 5e 5c bc cf cc 24 3e 2d 1b 85 bd a3 a0 03 3e
       -0.013450381 0.16093753 -0.06499324 0.12854247
0000d0 44 37 01 be 2d 96 b6 3d 9c 7b 07 be 49 72 b5 3c
       -0.12618738 0.089153625 -0.13230747 0.022149222
0000e0 d1 55 e9 3d ca 1e 3f 3d b1 16 96 bd 9d 1a 8b 3d
       0.11393321 0.046660222 -0.07328547 0.067921855
0000f0 c4 db a1 bd 59 2c 54 3e 67 81 94 bc b8 af 95 bd
       -0.07903245 0.20720042 -0.01812811 -0.07308906
000100 91 56 e0 3d fd 16 6d bd 97 0a c4 3c 5b f1 37 bc
       0.10954011 -0.05788325 0.02393083 -0.011226977
000110 28 7a 3e 3e 3c 2d 2e 3e d0 83 96 3d 7d 94 c6 bd
       0.18601286 0.17009443 0.0734936 -0.09696291
000120 0e 8c d3 bc e8 9a 0b 3d a6 8a 20 3e 66 0d 58 3e
       -0.02582362 0.034083277 0.1567789 0.21098861
000130 85 7b b2 3d 3f a5 b8 3c a9 a1 38 3e 45 05 35 be
       0.08714966 0.022539733 0.18030418 -0.17677791
000140 b6 62 0e be 0b 38 8b 3d cb 49 b8 3c e3 46 e7 bc
       -0.13904843 0.06797799 0.022496125 -0.028232044
000150 e5 70 a1 3d 90 d4 a7 bd b4 ae 63 3e d3 c9 1c 3e
       0.07882861 -0.0819484 0.22234613 0.15311365
000160 73 c2 71 3d 0e 14 c7 3d 9c 16 b5 bc 00 93 e1 3d
       0.05902333 0.09720622 -0.022105508 0.11014366
000170 f2 c9 19 be d4 1f ca bd 02 63 9b bd 80 af d4 3d
       -0.15018442 -0.09869352 -0.075872436 0.103850365
000180 4f 39 bd bd 28 a7 3d 3d 21 02 37 be fc 06 26 bd
       -0.09239446 0.04630199 -0.17871906 -0.040534005
000190 2f f7 f5 bd 14 66 56 3c 1b 2f 3b 3d 04 85 d5 3c
       -0.12010037 0.013085861 0.04569922 0.026064403
0001a0 ce d4 57 be 1e 64 cc bd 86 b1 d9 3d a5 35 5e 3e
       -0.21077272 -0.09980033 0.10629563 0.21700151
0001b0 d7 e7 12 bd 2b 02 df 3b 83 83 48 bd 27 7b f6 bd
       -0.03586563 0.0068056784 -0.048953544 -0.12035208
0001c0 f6 02 1c be e5 64 14 3e 48 b5 05 bd 06 48 e2 bb
       -0.15235505 0.14491613 -0.032643586 -0.0069055585
0001d0 86 79 8d bd 75 b3 1f 3d 99 47 83 bc 41 89 1d be
       -0.069079444 0.038989503 -0.016025351 -0.1538439
0001e0 8d e4 97 bc 22 92 78 3d 88 f6 2a be b8 db 51 3e
       -0.018541599 0.060686238 -0.16695607 0.20493972
0001f0 0d c1 62 be 18 99 a5 bd 58 77 0a 3e 7c 4f e0 bd
       -0.22143956 -0.08085841 0.13522089 -0.109526604
000200 18 14 00 3e bb 38 94 3d 03 63 22 be 99 34 16 3d
       0.12507665 0.07237383 -0.15858082 0.036671255
000210 0e 97 4b 3d 89 72 a5 bd 90 c0 e2 3d 35 81 33 3c
       0.049704604 -0.080784865 0.11071885 0.010956098
000220 f4 97 91 bc f1 b6 2d 3e af 09 11 bd c4 40 df 3d
       -0.017772652 0.16964318 -0.035409626 0.10901025
000230 ab 7d a2 bd 51 e5 87 3d 9f 03 0f be 8d 32 22 3e
       -0.079341255 0.066355355 -0.13966225 0.15839596
000240 f2 e2 02 3d 05 c4 25 be 7e 00 b1 3d 47 6f 4e be
       0.031954713 -0.16188057 0.08642672 -0.20159636
000250 05 9b e7 3c 8b c8 d3 3c 48 06 0a 3e d6 19 1d bd
       0.028272161 0.025852462 0.13478959 -0.038354717
000260 fa 01 70 bd 92 ae 51 3d 11 7e 0d 3d 7c ba b5 bd
       -0.058595635 0.051191874 0.034544054 -0.0887346
000270 bf 56 a1 bc 42 a8 62 3e 26 7d 24 3e 2b 94 d7 bb
       -0.019694684 0.22134498 0.16063365 -0.0065789423
000280 85 5d 0b be c0 be 5e 3e 5c 8b 35 3d 43 b4 2b 3e
       -0.13609894 0.21752453 0.044322357 0.16767983
000290 6b d7 b0 bd 8e c0 11 be d8 75 48 bd ff 70 36 be
       -0.08634838 -0.1423361 -0.04894051 -0.17816542
0002a0 e9 22 af bd 62 37 a7 bd e6 84 5a 3e dd 8a 9a bc
       -0.085515805 -0.0816486 0.21339759 -0.018865043
0002b0 4c 5b eb 3b 1a f3 b6 bd ce 3a d3 3d df 85 57 be
       0.0071825143 -0.08933087 0.103139505 -0.21047162
0002c0 a8 92 fc bd 5b b6 1e 3e d3 cc 89 bd de 34 dd bd
       -0.1233266 0.1549925 -0.0672852 -0.10801099
0002d0 98 2c 52 be 59 98 30 3d 5c 8a 5e be 7d 46 a7 ba
       -0.20524824 0.04311404 -0.21732467 -0.0012762096
0002e0 f4 74 f1 bd ab 0d b7 bd 47 58 da bc 6e e1 5a be
       -0.11789885 -0.08938154 -0.026653422 -0.21375057
0002f0 e3 a0 ed 3d 1c ca 88 3d c0 fd 55 be 5e 33 06 bd
       0.11602952 0.06679174 -0.20897579 -0.03276383
000300 a1 37 5a be 4a f2 39 3e f3 da bd 3b 74 24 f7 3d
       -0.21310283 0.18158832 0.005793923 0.120675
000310 f8 9c 00 3e 9b 75 84 bd f5 59 4c 3d ce ca 52 3d
       0.12559879 -0.06467744 0.049890477 0.05146294
000320 00 c6 48 be a3 f0 e1 bd 7c 99 78 bd ea 1b 9c 3d
       -0.19606781 -0.11032226 -0.06069325 0.07622512
000330 1d 36 de 3d f6 23 93 bc b6 31 47 3e 03 2c 32 3d
       0.10850165 -0.017961483 0.19452557 0.043499004
000340 56 88 59 3e d8 74 0f bc 0e 5a 59 3e 93 fa e2 3d
       0.21243414 -0.008755885 0.2122576 0.110829495
000350 75 e1 2b bd cd 42 18 3c b2 46 bc 3d 9e 34 30 bd
       -0.04196306 0.00929327 0.091931716 -0.04301893
000360 0f f3 c5 3d cc 8b 0e 3e 2d 75 46 3e 1e da 5c 3e
       0.096655004 0.13920516 0.19380637 0.2156758
000370 83 0a 0f 3e e8 3b 61 3e 7e 4b 1b be 3b 05 49 be
       0.13968854 0.21995509 -0.15165517 -0.19630902
000380 5c b8 57 be f0 bf bf bd b7 49 f8 3d c6 58 19 bd
       -0.21066421 -0.09362781 0.12123435 -0.037438177
000390 92 61 16 be 82 ae bd 3d a4 e9 fc 3d 5f 4b 38 3e
       -0.14685658 0.092618 0.12349251 0.17997502
0003a0 d5 82 e9 bd 05 89 50 3e 40 8c 11 3e 4a 17 ca 3d
       -0.11401907 0.20364769 0.14213657 0.09867723
0003b0 64 ee bd bd 5c 2a b0 bc 99 08 21 bb aa 06 01 be
       -0.09273985 -0.021504574 -0.0024571775 -0.12600198
0003c0 e7 23 3e 3e 81 01 b5 bd 05 a2 03 3e 24 09 d6 bd
       0.18568383 -0.088381775 0.12854774 -0.10450962
0003d0 52 0e 4b 3a a9 7c 46 be f6 32 14 3e b2 68 58 3e
       0.00077459693 -0.19383492 0.14472565 0.21133688
0003e0 55 26 fa 3d f0 1a c3 3c 7f b0 11 be 84 f3 db 3d
       0.122143425 0.023816556 -0.14227484 0.10739806
0003f0 51 54 40 3c b4 31 59 3d fc 55 96 3d 96 2a 36 3e
       0.011738853 0.053025916 0.07340619 0.17789683

out.weight f4 [10, 256]
000000 10 d6 8f bc 32 a6 1f 3d ac 17 ad 3c a4 d3 6d bd
       -0.017558128 0.038976856 0.021129452 -0.058063164
000010 38 66 d7 bc 20 07 35 3d e8 ab bf bc 60 03 0c 3b
       -0.026293859 0.044196248 -0.023397401 0.0021364316
000020 f0 09 8c bb 14 12 a0 3c ce 2b 74 3d e0 4f ca bc
       -0.0042736456 0.01953987 0.059612088 -0.02469629
000030 9c c1 69 3d 3a 54 41 bd f2 c9 00 bd 66 cf 50 bd
       0.057069406 -0.047199465 -0.03144259 -0.05097904
000040 18 ac 66 bc 00 e1 90 bc 6c da 83 3c 00 2c be bc
       -0.014079116 -0.017685413 0.016095363 -0.02321434
000050 60 20 5f 3d 98 0b c0 3c c4 7b 46 bd ac 7d e7 3c
       0.054474235 0.023443028 -0.048457876 0.028258167
000060 64 05 c5 bc 22 04 4f bd 90 c3 b4 3c 50 ad f8 3c
       -0.024050422 -0.05054105 0.022065908 0.03035608
000070 b8 95 10 bd 40 d2 85 bc 00 4d c0 39 d0 49 62 3c
       -0.035299033 -0.016335607 0.00036678463 0.013811544
000080 c8 3e 6b 3c 2a b9 2d bd 92 23 54 bd 30 a4 06 bc
       0.01435823 -0.042412914 -0.051791735 -0.008217856
000090 a0 80 3d 3d b8 ec 6c 3c f0 69 f7 bc 4c 4a 47 bd
       0.046265244 0.014460735 -0.030201882 -0.04865484
0000a0 e8 e7 dc bc e8 49 37 bc 1a e7 05 3d d4 e3 21 3d
       -0.02696605 -0.011187054 0.0326911 0.039523914
0000b0 8c c0 00 bd 18 a3 4f bc 34 d1 7b 3d cc a5 40 bd
       -0.031433627 -0.012673162 0.06147881 -0.047033116
0000c0 98 69 9b bc d0 49 3f bc 80 86 b6 bb f8 1c 5f bc
       -0.01897125 -0.011675313 -0.005570233 -0.0136177465
0000d0 88 c2 41 3c 0e 2e 77 3d 00 16 2d bb 44 7a 93 3c
       0.011826165 0.060346656 -0.0026410818 0.018002637
0000e0 20 a1 2a bb 8c 90 c0 3c 9e b3 21 bd 00 7e 3a 3b
       -0.002603598 0.023506425 -0.039477937 0.002845645
0000f0 b0 47 d7 3c a0 fc cb bb 52 6f 0f bd 68 f8 9e bc
       0.0262793 -0.0062251836 -0.035018273 -0.019405559
000100 d6 5d 29 bd 1c 83 73 bd dc af 4d bd c2 bc 2b 3d
       -0.041349255 -0.059451208 -0.05021654 0.04192806
000110 18 3f ac 3c 54 a3 ee bc ec 61 2b bd 80 87 ab ba
       0.02102618 -0.029130615 -0.041841432 -0.0013086647
000120 b8 5e 6f bd 08 9e 53 3c 36 65 01 bd f6 79 5c 3d
       -0.05843994 0.012916096 -0.031590663 0.05382725
000130 4e 80 1a bd 90 13 d8 3b c8 f9 e6 3c 20 f7 33 3d
       -0.037720017 0.006594129 0.028195277 0.04393685
000140 20 19 a4 3b b8 34 57 3c 2a bf 55 bd e8 5d 7e 3d
       0.005007878 0.013135128 -0.05218426 0.062101275
000150 c8 cf 5a bd b0 03 ad 3b e6 70 6b 3d c0 8d 7d bc
       -0.053420812 0.0052799806 0.057480715 -0.01547569
000160 40 56 4a bb 00 f2 71 bb d4 4c b2 bc dc d6 c3 bc
       -0.0030874163 -0.0036917925 -0.02176515 -0.023906164
000170 98 28 e2 3c 68 89 41 3d 54 cf 94 bc 30 57 b3 3b
       0.027607247 0.04725018 -0.018165268 0.00547304
000180 d0 55 f0 3b 70 f8 f6 bb c8 3e 1d 3d 32 d9 6d 3d
       0.0073344484 -0.0075369403 0.03838995 0.05806846
000190 ec 22 6c bd a8 a2 f9 3c 02 87 2d 3d 5c d7 bc 3c
       -0.05765049 0.030473068 0.04236508 0.02305191
0001a0 62 9a 50 3d 30 21 74 3d a2 a8 4b 3d 36 24 5b bd
       0.05092848 0.059601963 0.049721368 -0.05350133
0001b0 f6 50 0a 3d 50 4e 09 3c 40 71 eb bc 6c 56 e2 3c
       0.033768617 0.008380488 -0.028740525 0.0276291
0001c0 f0 1b 15 3c c6 72 5e 3d 10 22 3f bc 2e 2e 6b bd
       0.009100899 0.054308675 -0.011665836 -0.057417087
0001d0 cc f4 3b bd d6 bf 39 bd 0e 0f 0c 3d 72 10 41 3d
       -0.045887753 -0.045348965 0.034194045 0.047134824
0001e0 80 cf ea ba 10 17 a6 bb 40 56 eb ba 50 91 ac 3b
       -0.0017914623 -0.0050686672 -0.0017954782 0.005266346
0001f0 ca ed 12 bd a0 36 dd bc b2 83 3d bd e8 1d 8d bc
       -0.035871305 -0.027003586 -0.046268173 -0.017226174
000200 e0 de f8 bb dc a5 19 3d 94 16 f0 3c 1a 1e 3f bd
       -0.007594928 0.03751169 0.029307641 -0.046659566
000210 c0 01 5f 3b d8 c6 81 3c 58 0f 66 bc 3e 8c 13 3d
       0.0034028143 0.015841886 -0.014041744 0.036022417
000220 50 af 1a bc 00 e4 a9 3a ca 76 38 3d d8 bc 4a bd
       -0.009441212 0.0012961626 0.04503516 -0.0494965
000230 2c 8c 33 bd 2c f3 27 bd 8a a4 5b bd 1c f3 81 3c
       -0.04383485 -0.04100339 -0.053623714 0.015862994
000240 84 c4 f1 3c 14 e9 95 3c fc b3 8c 3c 50 ba cf bc
       0.029512651 0.018299617 0.017175667 -0.025357395
000250 52 90 2e bd b4 3a 97 bc 52 c7 0a bd 90 7e be 3c
       -0.042618103 -0.018460609 -0.033881493 0.02325371
000260 1e 25 4c bd 08 b3 83 3c 84 ed d4 bc 80 a2 76 3d
       -0.049840085 0.01607658 -0.025992163 0.060213566
000270 be 65 3b 3d 2a 06 2e 3d 3e a3 52 bd a0 c6 12 bb
       0.045751326 0.042486347 -0.05142521 -0.0022396222
000280 b2 8f 14 3d 00 1e b8 3c 00 e0 52 bb 48 9e 90 bc
       0.03626985 0.022475243 -0.0032176971 -0.0176536
000290 9c b6 13 bd f0 86 28 3c 80 cf 7d bd 22 4e 1a bd
       -0.03606282 0.010286078 -0.061965466 -0.03767217
0002a0 e0 fe 84 bb c8 52 52 bd d8 5f db bc 70 ca 7f 3c
       -0.004058704 -0.051348478 -0.0267791 0.01561223
0002b0 a4 0c b4 3c dc b6 b4 bc 00 dd bb b9 36 d5 0e 3d
       0.021978684 -0.02205985 -0.00035832077 0.034871303
0002c0 70 6e 1d bd 74 af 10 bd 18 3d b9 bc 56 a5 6c bd
       -0.0384354 -0.035323575 -0.02261214 -0.057774864
0002d0 40 21 aa ba 08 d8 ff bc 40 1f d7 bb 58 a8 7d bc
       -0.001297988 -0.031230941 -0.0065650046 -0.015482031
0002e0 90 ed bc 3c 98 10 5e bd 44 73 18 3d 0c f0 df 3c
       0.023062497 -0.054215044 0.0372193 0.027336143
0002f0 64 5b 3c bd 34 31 49 bd 5c c5 cb 3c ae d9 71 bd
       -0.045985594 -0.04911919 0.024874382 -0.059045486
000300 00 96 ef bb 90 25 d9 bc 2e f7 55 3d 12 fd 0f 3d
       -0.0073115826 -0.026507169 0.052237682 0.035153456
000310 3e 66 12 bd 8e 4c 12 bd 46 72 73 bd ae dc 75 bd
       -0.035742037 -0.03571754 -0.05943515 -0.06002491
000320 72 b2 5d bd 10 62 c5 bc d8 ad 14 3d a8 f9 56 bc
       -0.054125257 -0.024094611 0.036298603 -0.013121046
000330 16 15 33 3d 48 43 43 3c c6 b7 16 bd ec bf 3b bd
       0.04372128 0.011917897 -0.036796354 -0.045837328
000340 e0 bf f0 bc 82 b0 24 bd 92 94 76 3d ec 45 e2 3c
       -0.029388368 -0.040207393 0.06020028 0.027621232
000350 b4 30 b4 bc e0 0e 6f bc 84 51 3b 3d 66 82 2f bd
       -0.02199588 -0.014590949 0.045732036 -0.042848967
000360 98 59 0e bd 2c 40 fe bc 0c 96 c2 bc 68 28 11 bd
       -0.034753412 -0.031036459 -0.023753189 -0.035438925
000370 ec 8e c9 bc d4 dc d3 3c b4 8e 5b bd 14 c7 01 3d
       -0.024604283 0.025862135 -0.05360289 0.031683996
000380 a2 f9 27 bd a0 28 1a 3b 28 ab ef bc 20 cf 32 3b
       -0.041009553 0.002352275 -0.029256418 0.00272841
000390 8c 08 de bc 38 5f 88 3c f0 a9 67 bc 00 06 f3 39
       -0.027103685 0.016646966 -0.014139637 0.00046353042
0003a0 ea 81 47 3d 48 31 6a bc dc 52 3e bd 60 bd 1c bc
       0.04870788 -0.014293976 -0.04646574 -0.009566635
0003b0 38 e5 78 3d ac 63 ba 3c a0 e8 1c 3c 7e f8 07 3d
       0.060765475 0.022752605 0.0095769465 0.033195965
0003c0 c0 a2 c0 3a 54 7f 9f bc 24 54 a1 bc 28 10 08 3c
       0.0014696941 -0.019469894 -0.019693442 0.008304633
0003d0 40 41 a0 bc d4 e9 84 bc ac bf fa 3c c0 55 31 bb
       -0.019562364 -0.01622478 0.030608974 -0.0027059168
0003e0 a0 08 f5 3b f4 b9 6e bd a0 04 21 3b 48 06 f4 3c
       0.007477835 -0.058282807 0.0024569407 0.029788151
0003f0 c0 7b 7b bd 38 42 4f bd 58 dc ec 3c 64 58 ac 3c
       -0.061397314 -0.05060026 0.028913662 0.021038242

out.bias f4 [10]
000000 a0 ec 0e bd 98 6e 1a 3d f8 bd 36 bd 20 01 63 bd
       -0.034893632 0.037703127 -0.044614762 -0.055420995
000010 88 2c 06 bd a8 cb 48 bd 72 1e 53 bd b8 e5 70 3d
       -0.032757312 -0.049022347 -0.051542707 0.058812827
000020 20 e6 99 3b 80 72 96 bb
       0.0046966225 -0.004591286
